…
ce":["model = eval(f\"{model_type}().to(DEVICE)\")\n","print(model)\n","x_batch, _ = next(iter(train_DL))\n","print(model(x_batch.to(DEVICE)).shape)\n","\n","# print(count_params(model))"],"metadata":{"colab":{"base_uri":"https://localhost:8080/"},"id":"QNdqIG7Pr9de","executionInfo":{"status":"ok","timestamp":1695273375315,"user_tz":-540,"elapsed":2,"user":{"displayName":"Leti","userId":"02008551505366210836"}},"outputId":"93c659e2-3865-4609-c473-6f20667a9cbb"},"execution_count":95,"outputs":[{"output_type":"stream","name":"stdout","text":["CNN_deep(\n","  (conv_block1): Sequential(\n","    (0): Conv2d(3, 32, kernel_size=(3, 3), stride=(1, 1), padding=(1, 1))\n","    (1): BatchNorm2d(32, eps=1e-05, momentum=0.1, affine=True, track_running_stats=True)\n","    (2): ReLU()\n","    (3): Conv2d(32, 32, kernel_size=(3, 3), stride=(1, 1), padding=(1, 1))\n","    (4): BatchNorm2d(32, eps=1e-05, momentum=0.1, affine=True, track_running_stats=True)\n","    (5): ReLU()\n","  )\n","  (Maxpool1): MaxPool2d(kernel_size=2, stride=2, padding=0, dilation=1, ceil_mode=False)\n","  (conv_block2): Sequential(\n","    (0): Conv2d(32, 64, kernel_size=(3, 3), stride=(1, 1), padding=(1, 1))\n","    (1): BatchNorm2d(64, eps=1e-05, momentum=0.1, affine=True, track_running_stats=True)\n","    (2): ReLU()\n","    (3): Conv2d(64, 64, kernel_size=(3, 3), stride=(1, 1), padding=(1, 1))\n","    (4): BatchNorm2d(64, eps=1e-05, momentum=0.1, affine=True, track_running_stats=True)\n","    (5): ReLU()\n","    (6): Conv2d(64, 64, kernel_size=(3, 3), stride=(1, 1), padding=(1, 1))\n","    (7): BatchNorm2d(64, eps=1e-05, momentum=0.1, affine=True, track_running_stats=True)\n","    (8): ReLU()\n","  )\n","  (Maxpool2): MaxPool2d(kernel_size=2, stride=2, padding=0, dilation=1, ceil_mode=False)\n","  (conv_block3): Sequential(\n","    (0): Conv2d(64, 128, kernel_size=(3, 3), stride=(1, 1), padding=(1, 1))\n","    (1): BatchNorm2d(128, eps=1e-05, momentum=0.1, affine=True, track_running_stats=True)\n","    (2): ReLU()\n","    (3): Conv2d(128, 128, kernel_size=(3, 3), stride=(1, 1), padding=(1, 1))\n","    (4): BatchNorm2d(128, eps=1e-05, momentum=0.1, affine=True, track_running_stats=True)\n","    (5): ReLU()\n","    (6): Conv2d(128, 128, kernel_size=(3, 3), stride=(1, 1), padding=(1, 1))\n","    (7): BatchNorm2d(128, eps=1e-05, momentum=0.1, affine=True, track_running_stats=True)\n","    (8): ReLU()\n","  )\n","  (Maxpool3): MaxPool2d(kernel_size=2, stride=2, padding=0, dilation=1, ceil_mode=False)\n","  (classifier): Sequential(\n","    (0): Linear(in_features=2048, out_features=512, bias=True)\n","    (1): ReLU()\n","    (2): Linear(in_features=512, out_features=10, bias=True)\n","  )\n",")\n","torch.Size([32, 10])\n"]}]},{"cell_type":"code","source":["if new_model_train:\n","    optimizer = optim.Adam(model.parameters(), lr = LR)\n","    loss_history = Train(model, train_DL, criterion, optimizer, EPOCH)\n","\n","    torch.save(model, save_model_path)\n","\n","    plt.figure()\n","    plt.plot(range(1,EPOCH+1),loss_history)\n
…
